==>>> total trainning batch number: 15000
==>>> total testing batch number: 2500
==>>> Data properties:
  >>> Number channels: 1, Data (height x width): (28 x 28)

----------------------------------------------------------------------

ConvNet(
  (conv1): Conv2d(1, 7, kernel_size=(3, 3), stride=(1, 1))
  (pool1): MaxPool2d(kernel_size=2, stride=2, padding=0, dilation=1, ceil_mode=False)
  (conv2): Conv2d(7, 14, kernel_size=(2, 2), stride=(1, 1))
  (pool2): MaxPool2d(kernel_size=2, stride=2, padding=0, dilation=1, ceil_mode=False)
  (fc1): Linear(in_features=504, out_features=120, bias=True)
  (fc2): Linear(in_features=120, out_features=84, bias=True)
  (fc3): Linear(in_features=84, out_features=10, bias=True)
)
Adam (
Parameter Group 0
    amsgrad: False
    betas: (0.9, 0.999)
    eps: 1e-08
    lr: 0.006
    weight_decay: 0
)
Start Training
[1,  2500] loss: 0.433
[1,  5000] loss: 0.231
[1,  7500] loss: 0.192
[1, 10000] loss: 0.204
[1, 12500] loss: 0.169
[1, 15000] loss: 0.181
[2,  2500] loss: 0.189
[2,  5000] loss: 0.189
[2,  7500] loss: 0.184
[2, 10000] loss: 0.184
…
[2, 15000] loss: 0.179
[3,  2500] loss: 0.161
[3,  5000] loss: 0.176
[3,  7500] loss: 0.173
[3, 10000] loss: 0.185
[3, 12500] loss: 0.177
[3, 15000] loss: 0.156
[4,  2500] loss: 0.141
[4,  5000] loss: 0.141
[4,  7500] loss: 0.182
[4, 10000] loss: 0.181
[4, 12500] loss: 0.174
[4, 15000] loss: 0.173
[5,  2500] loss: 0.187
[5,  5000] loss: 0.170
[5,  7500] loss: 0.197
[5, 10000] loss: 0.156
[5, 12500] loss: 0.159
[5, 15000] loss: 0.153
Finished Training
Accuracy of the network on the 2500 test images: 96.68 %%

----------------------------------------------------------------------

ConvNet(
  (conv1): Conv2d(1, 8, kernel_size=(2, 2), stride=(1, 1))
  (pool1): MaxPool2d(kernel_size=2, stride=2, padding=0, dilation=1, ceil_mode=False)
  (conv2): Conv2d(8, 14, kernel_size=(2, 2), stride=(1, 1))
  (pool2): MaxPool2d(kernel_size=2, stride=2, padding=0, dilation=1, ceil_mode=False)
  (fc1): Linear(in_features=504, out_features=120, bias=True)
  (fc2): Linear(in_features=120, out_features=84, bias=True)
  (fc3): Linear(in_features=84, out_features=10, bias=True)
)
Adam (
Parameter Group 0
    amsgrad: False
    betas: (0.9, 0.999)
    eps: 1e-08
    lr: 0.002
    weight_decay: 0
)
Start Training
[1,  2500] loss: 0.377
[1,  5000] loss: 0.161
[1,  7500] loss: 0.121
[1, 10000] loss: 0.109
[1, 12500] loss: 0.100
[1, 15000] loss: 0.099
[2,  2500] loss: 0.088
[2,  5000] loss: 0.085
[2,  7500] loss: 0.084
[2, 10000] loss: 0.080
…
[2, 15000] loss: 0.083
[3,  2500] loss: 0.063
[3,  5000] loss: 0.066
[3,  7500] loss: 0.061
[3, 10000] loss: 0.071
[3, 12500] loss: 0.076
[3, 15000] loss: 0.076
[4,  2500] loss: 0.050
[4,  5000] loss: 0.059
[4,  7500] loss: 0.055
[4, 10000] loss: 0.068
[4, 12500] loss: 0.068
[4, 15000] loss: 0.068
[5,  2500] loss: 0.049
[5,  5000] loss: 0.057
[5,  7500] loss: 0.054
[5, 10000] loss: 0.057
[5, 12500] loss: 0.067
[5, 15000] loss: 0.056
Finished Training
Accuracy of the network on the 2500 test images: 98.13 %%

----------------------------------------------------------------------

ConvNet(
  (conv1): Conv2d(1, 7, kernel_size=(2, 2), stride=(1, 1))
  (pool1): MaxPool2d(kernel_size=2, stride=2, padding=0, dilation=1, ceil_mode=False)
  (conv2): Conv2d(7, 30, kernel_size=(3, 3), stride=(1, 1))
  (pool2): MaxPool2d(kernel_size=2, stride=2, padding=0, dilation=1, ceil_mode=False)
  (fc1): Linear(in_features=750, out_features=120, bias=True)
  (fc2): Linear(in_features=120, out_features=84, bias=True)
  (fc3): Linear(in_features=84, out_features=10, bias=True)
)
Adam (
Parameter Group 0
    amsgrad: False
    betas: (0.9, 0.999)
    eps: 1e-08
    lr: 0.002
    weight_decay: 0
)
Start Training
[1,  2500] loss: 0.331
[1,  5000] loss: 0.139
[1,  7500] loss: 0.121
[1, 10000] loss: 0.109
[1, 12500] loss: 0.102
[1, 15000] loss: 0.100
[2,  2500] loss: 0.084
[2,  5000] loss: 0.085
[2,  7500] loss: 0.076
[2, 10000] loss: 0.077
…
[2, 15000] loss: 0.077
[3,  2500] loss: 0.060
[3,  5000] loss: 0.067
[3,  7500] loss: 0.067
[3, 10000] loss: 0.066
[3, 12500] loss: 0.057
[3, 15000] loss: 0.071
[4,  2500] loss: 0.056
[4,  5000] loss: 0.064
[4,  7500] loss: 0.060
[4, 10000] loss: 0.053
[4, 12500] loss: 0.068
[4, 15000] loss: 0.062
[5,  2500] loss: 0.056
[5,  5000] loss: 0.055
[5,  7500] loss: 0.058
[5, 10000] loss: 0.058
[5, 12500] loss: 0.054
[5, 15000] loss: 0.047
Finished Training
Accuracy of the network on the 2500 test images: 98.41 %%

----------------------------------------------------------------------

ConvNet(
  (conv1): Conv2d(1, 3, kernel_size=(5, 5), stride=(1, 1))
  (pool1): MaxPool2d(kernel_size=2, stride=2, padding=0, dilation=1, ceil_mode=False)
  (conv2): Conv2d(3, 14, kernel_size=(2, 2), stride=(1, 1))
  (pool2): MaxPool2d(kernel_size=2, stride=2, padding=0, dilation=1, ceil_mode=False)
  (fc1): Linear(in_features=350, out_features=120, bias=True)
  (fc2): Linear(in_features=120, out_features=84, bias=True)
  (fc3): Linear(in_features=84, out_features=10, bias=True)
)
Adam (
Parameter Group 0
    amsgrad: False
    betas: (0.9, 0.999)
    eps: 1e-08
    lr: 0.002
    weight_decay: 0
)
Start Training
[1,  2500] loss: 0.346
[1,  5000] loss: 0.171
[1,  7500] loss: 0.137
[1, 10000] loss: 0.119
[1, 12500] loss: 0.109
[1, 15000] loss: 0.115
[2,  2500] loss: 0.088
[2,  5000] loss: 0.088
[2,  7500] loss: 0.091
[2, 10000] loss: 0.102
…
[2, 15000] loss: 0.082
[3,  2500] loss: 0.074
[3,  5000] loss: 0.081
[3,  7500] loss: 0.075
[3, 10000] loss: 0.085
[3, 12500] loss: 0.088
[3, 15000] loss: 0.081
[4,  2500] loss: 0.069
[4,  5000] loss: 0.068
[4,  7500] loss: 0.079
[4, 10000] loss: 0.076
[4, 12500] loss: 0.094
[4, 15000] loss: 0.091
[5,  2500] loss: 0.061
[5,  5000] loss: 0.070
[5,  7500] loss: 0.070
[5, 10000] loss: 0.077
[5, 12500] loss: 0.090
[5, 15000] loss: 0.063
Finished Training
Accuracy of the network on the 2500 test images: 97.89 %%

----------------------------------------------------------------------

ConvNet(
  (conv1): Conv2d(1, 8, kernel_size=(2, 2), stride=(1, 1))
  (pool1): MaxPool2d(kernel_size=2, stride=2, padding=0, dilation=1, ceil_mode=False)
  (conv2): Conv2d(8, 30, kernel_size=(2, 2), stride=(1, 1))
  (pool2): MaxPool2d(kernel_size=2, stride=2, padding=0, dilation=1, ceil_mode=False)
  (fc1): Linear(in_features=1080, out_features=120, bias=True)
  (fc2): Linear(in_features=120, out_features=84, bias=True)
  (fc3): Linear(in_features=84, out_features=10, bias=True)
)
SGD (
Parameter Group 0
    dampening: 0
    lr: 0.002
    momentum: 0.9
    nesterov: False
    weight_decay: 0
)
Start Training
[1,  2500] loss: 0.973
[1,  5000] loss: 0.154
[1,  7500] loss: 0.118
[1, 10000] loss: 0.104
[1, 12500] loss: 0.086
[1, 15000] loss: 0.083
[2,  2500] loss: 0.063
[2,  5000] loss: 0.063
[2,  7500] loss: 0.060
[2, 10000] loss: 0.066
…
[2, 15000] loss: 0.054
[3,  2500] loss: 0.032
[3,  5000] loss: 0.042
[3,  7500] loss: 0.040
[3, 10000] loss: 0.037
[3, 12500] loss: 0.043
[3, 15000] loss: 0.042
[4,  2500] loss: 0.026
[4,  5000] loss: 0.030
[4,  7500] loss: 0.030
[4, 10000] loss: 0.030
[4, 12500] loss: 0.033
[4, 15000] loss: 0.026
[5,  2500] loss: 0.019
[5,  5000] loss: 0.019
[5,  7500] loss: 0.026
[5, 10000] loss: 0.021
[5, 12500] loss: 0.029
[5, 15000] loss: 0.024
Finished Training
Accuracy of the network on the 2500 test images: 98.72 %%

----------------------------------------------------------------------

ConvNet(
  (conv1): Conv2d(1, 8, kernel_size=(2, 2), stride=(1, 1))
  (pool1): MaxPool2d(kernel_size=2, stride=2, padding=0, dilation=1, ceil_mode=False)
  (conv2): Conv2d(8, 1, kernel_size=(2, 2), stride=(1, 1))
  (pool2): MaxPool2d(kernel_size=2, stride=2, padding=0, dilation=1, ceil_mode=False)
  (fc1): Linear(in_features=36, out_features=120, bias=True)
  (fc2): Linear(in_features=120, out_features=84, bias=True)
  (fc3): Linear(in_features=84, out_features=10, bias=True)
)
SGD (
Parameter Group 0
    dampening: 0
    lr: 0.002
    momentum: 0.9
    nesterov: False
    weight_decay: 0
)
Start Training
[1,  2500] loss: 0.830
[1,  5000] loss: 0.390
[1,  7500] loss: 0.327
[1, 10000] loss: 0.302
[1, 12500] loss: 0.265
[1, 15000] loss: 0.266
[2,  2500] loss: 0.224
[2,  5000] loss: 0.239
[2,  7500] loss: 0.232
[2, 10000] loss: 0.203
…
[2, 15000] loss: 0.205
[3,  2500] loss: 0.193
[3,  5000] loss: 0.200
[3,  7500] loss: 0.196
[3, 10000] loss: 0.173
[3, 12500] loss: 0.178
[3, 15000] loss: 0.179
[4,  2500] loss: 0.177
[4,  5000] loss: 0.164
[4,  7500] loss: 0.171
[4, 10000] loss: 0.172
[4, 12500] loss: 0.170
[4, 15000] loss: 0.158
[5,  2500] loss: 0.161
[5,  5000] loss: 0.160
[5,  7500] loss: 0.165
[5, 10000] loss: 0.150
[5, 12500] loss: 0.158
[5, 15000] loss: 0.154
Finished Training
Accuracy of the network on the 2500 test images: 94.12 %%

----------------------------------------------------------------------

ConvNet(
  (conv1): Conv2d(1, 6, kernel_size=(2, 2), stride=(1, 1))
  (pool1): MaxPool2d(kernel_size=2, stride=2, padding=0, dilation=1, ceil_mode=False)
  (conv2): Conv2d(6, 20, kernel_size=(2, 2), stride=(1, 1))
  (pool2): MaxPool2d(kernel_size=2, stride=2, padding=0, dilation=1, ceil_mode=False)
  (fc1): Linear(in_features=720, out_features=120, bias=True)
  (fc2): Linear(in_features=120, out_features=84, bias=True)
  (fc3): Linear(in_features=84, out_features=10, bias=True)
)
SGD (
Parameter Group 0
    dampening: 0
    lr: 0.005
    momentum: 0.9
    nesterov: False
    weight_decay: 0
)
Start Training
[1,  2500] loss: 0.592
[1,  5000] loss: 0.169
[1,  7500] loss: 0.133
[1, 10000] loss: 0.116
[1, 12500] loss: 0.094
[1, 15000] loss: 0.094
[2,  2500] loss: 0.079
[2,  5000] loss: 0.080
[2,  7500] loss: 0.077
[2, 10000] loss: 0.074
…
[2, 15000] loss: 0.066
[3,  2500] loss: 0.058
[3,  5000] loss: 0.057
[3,  7500] loss: 0.057
[3, 10000] loss: 0.063
[3, 12500] loss: 0.055
[3, 15000] loss: 0.051
[4,  2500] loss: 0.042
[4,  5000] loss: 0.042
[4,  7500] loss: 0.045
[4, 10000] loss: 0.049
[4, 12500] loss: 0.056
[4, 15000] loss: 0.060
[5,  2500] loss: 0.034
[5,  5000] loss: 0.044
[5,  7500] loss: 0.043
[5, 10000] loss: 0.050
[5, 12500] loss: 0.041
[5, 15000] loss: 0.043
Finished Training
Accuracy of the network on the 2500 test images: 98.26 %%

----------------------------------------------------------------------

ConvNet(
  (conv1): Conv2d(1, 8, kernel_size=(2, 2), stride=(1, 1))
  (pool1): MaxPool2d(kernel_size=2, stride=2, padding=0, dilation=1, ceil_mode=False)
  (conv2): Conv2d(8, 26, kernel_size=(3, 3), stride=(1, 1))
  (pool2): MaxPool2d(kernel_size=2, stride=2, padding=0, dilation=1, ceil_mode=False)
  (fc1): Linear(in_features=650, out_features=120, bias=True)
  (fc2): Linear(in_features=120, out_features=84, bias=True)
  (fc3): Linear(in_features=84, out_features=10, bias=True)
)
Adam (
Parameter Group 0
    amsgrad: False
    betas: (0.9, 0.999)
    eps: 1e-08
    lr: 0.001
    weight_decay: 0
)
Start Training
[1,  2500] loss: 0.399
[1,  5000] loss: 0.138
[1,  7500] loss: 0.103
[1, 10000] loss: 0.090
[1, 12500] loss: 0.087
[1, 15000] loss: 0.072
[2,  2500] loss: 0.064
[2,  5000] loss: 0.069
[2,  7500] loss: 0.055
[2, 10000] loss: 0.057
…
[2, 15000] loss: 0.056
[3,  2500] loss: 0.043
[3,  5000] loss: 0.040
[3,  7500] loss: 0.048
[3, 10000] loss: 0.046
[3, 12500] loss: 0.043
[3, 15000] loss: 0.049
[4,  2500] loss: 0.033
[4,  5000] loss: 0.037
[4,  7500] loss: 0.036
[4, 10000] loss: 0.044
[4, 12500] loss: 0.040
[4, 15000] loss: 0.038
[5,  2500] loss: 0.027
[5,  5000] loss: 0.028
[5,  7500] loss: 0.032
[5, 10000] loss: 0.030
[5, 12500] loss: 0.036
[5, 15000] loss: 0.034
Finished Training
Accuracy of the network on the 2500 test images: 98.36 %%

----------------------------------------------------------------------

ConvNet(
  (conv1): Conv2d(1, 8, kernel_size=(2, 2), stride=(1, 1))
  (pool1): MaxPool2d(kernel_size=2, stride=2, padding=0, dilation=1, ceil_mode=False)
  (conv2): Conv2d(8, 26, kernel_size=(2, 2), stride=(1, 1))
  (pool2): MaxPool2d(kernel_size=2, stride=2, padding=0, dilation=1, ceil_mode=False)
  (fc1): Linear(in_features=936, out_features=120, bias=True)
  (fc2): Linear(in_features=120, out_features=84, bias=True)
  (fc3): Linear(in_features=84, out_features=10, bias=True)
)
Adam (
Parameter Group 0
    amsgrad: False
    betas: (0.9, 0.999)
    eps: 1e-08
    lr: 0.004
    weight_decay: 0
)
Start Training
[1,  2500] loss: 0.374
[1,  5000] loss: 0.182
[1,  7500] loss: 0.158
[1, 10000] loss: 0.137
[1, 12500] loss: 0.124
[1, 15000] loss: 0.130
[2,  2500] loss: 0.117
[2,  5000] loss: 0.124
[2,  7500] loss: 0.122
[2, 10000] loss: 0.127
…
[2, 15000] loss: 0.126
[3,  2500] loss: 0.114
[3,  5000] loss: 0.111
[3,  7500] loss: 0.108
[3, 10000] loss: 0.105
[3, 12500] loss: 0.125
[3, 15000] loss: 0.109
[4,  2500] loss: 0.098
[4,  5000] loss: 0.106
[4,  7500] loss: 0.117
[4, 10000] loss: 0.107
[4, 12500] loss: 0.105
[4, 15000] loss: 0.113
[5,  2500] loss: 0.102
[5,  5000] loss: 0.097
[5,  7500] loss: 0.106
[5, 10000] loss: 0.111
[5, 12500] loss: 0.115
[5, 15000] loss: 0.102
Finished Training
Accuracy of the network on the 2500 test images: 97.65 %%

----------------------------------------------------------------------

ConvNet(
  (conv1): Conv2d(1, 8, kernel_size=(5, 5), stride=(1, 1))
  (pool1): MaxPool2d(kernel_size=2, stride=2, padding=0, dilation=1, ceil_mode=False)
  (conv2): Conv2d(8, 30, kernel_size=(4, 4), stride=(1, 1))
  (pool2): MaxPool2d(kernel_size=2, stride=2, padding=0, dilation=1, ceil_mode=False)
  (fc1): Linear(in_features=480, out_features=120, bias=True)
  (fc2): Linear(in_features=120, out_features=84, bias=True)
  (fc3): Linear(in_features=84, out_features=10, bias=True)
)
SGD (
Parameter Group 0
    dampening: 0
    lr: 0.004
    momentum: 0.9
    nesterov: False
    weight_decay: 0
)
Start Training
[1,  2500] loss: 0.450
[1,  5000] loss: 0.147
[1,  7500] loss: 0.114
[1, 10000] loss: 0.097
[1, 12500] loss: 0.091
[1, 15000] loss: 0.089
[2,  2500] loss: 0.068
[2,  5000] loss: 0.068
[2,  7500] loss: 0.059
[2, 10000] loss: 0.058
…
[2, 15000] loss: 0.059
[3,  2500] loss: 0.049
[3,  5000] loss: 0.048
[3,  7500] loss: 0.046
[3, 10000] loss: 0.049
[3, 12500] loss: 0.048
[3, 15000] loss: 0.052
[4,  2500] loss: 0.041
[4,  5000] loss: 0.039
[4,  7500] loss: 0.040
[4, 10000] loss: 0.033
[4, 12500] loss: 0.044
[4, 15000] loss: 0.038
[5,  2500] loss: 0.028
[5,  5000] loss: 0.041
[5,  7500] loss: 0.026
[5, 10000] loss: 0.037
[5, 12500] loss: 0.034
[5, 15000] loss: 0.039
Finished Training
Accuracy of the network on the 2500 test images: 98.87 %%

----------------------------------------------------------------------

ConvNet(
  (conv1): Conv2d(1, 8, kernel_size=(3, 3), stride=(1, 1))
  (pool1): MaxPool2d(kernel_size=2, stride=2, padding=0, dilation=1, ceil_mode=False)
  (conv2): Conv2d(8, 8, kernel_size=(4, 4), stride=(1, 1))
  (pool2): MaxPool2d(kernel_size=2, stride=2, padding=0, dilation=1, ceil_mode=False)
  (fc1): Linear(in_features=200, out_features=120, bias=True)
  (fc2): Linear(in_features=120, out_features=84, bias=True)
  (fc3): Linear(in_features=84, out_features=10, bias=True)
)
SGD (
Parameter Group 0
    dampening: 0
    lr: 0.007
    momentum: 0.9
    nesterov: False
    weight_decay: 0
)
Start Training
[1,  2500] loss: 0.565
[1,  5000] loss: 0.227
[1,  7500] loss: 0.174
[1, 10000] loss: 0.165
[1, 12500] loss: 0.155
[1, 15000] loss: 0.152
[2,  2500] loss: 0.146
[2,  5000] loss: 0.147
[2,  7500] loss: 0.133
[2, 10000] loss: 0.115
…
[2, 15000] loss: 0.107
[3,  2500] loss: 0.096
[3,  5000] loss: 0.091
[3,  7500] loss: 0.101
[3, 10000] loss: 0.116
[3, 12500] loss: 0.138
[3, 15000] loss: 0.104
[4,  2500] loss: 0.098
[4,  5000] loss: 0.100
[4,  7500] loss: 0.145
[4, 10000] loss: 0.134
[4, 12500] loss: 0.108
[4, 15000] loss: 0.143
[5,  2500] loss: 0.116
[5,  5000] loss: 0.127
[5,  7500] loss: 0.133
[5, 10000] loss: 0.196
[5, 12500] loss: 0.168
[5, 15000] loss: 0.143
Finished Training
Accuracy of the network on the 2500 test images: 95.46 %%

----------------------------------------------------------------------

ConvNet(
  (conv1): Conv2d(1, 4, kernel_size=(4, 4), stride=(1, 1))
  (pool1): MaxPool2d(kernel_size=2, stride=2, padding=0, dilation=1, ceil_mode=False)
  (conv2): Conv2d(4, 30, kernel_size=(2, 2), stride=(1, 1))
  (pool2): MaxPool2d(kernel_size=2, stride=2, padding=0, dilation=1, ceil_mode=False)
  (fc1): Linear(in_features=750, out_features=120, bias=True)
  (fc2): Linear(in_features=120, out_features=84, bias=True)
  (fc3): Linear(in_features=84, out_features=10, bias=True)
)
SGD (
Parameter Group 0
    dampening: 0
    lr: 0.007
    momentum: 0.9
    nesterov: False
    weight_decay: 0
)
Start Training
[1,  2500] loss: 0.509
[1,  5000] loss: 0.176
[1,  7500] loss: 0.155
[1, 10000] loss: 0.132
[1, 12500] loss: 0.131
[1, 15000] loss: 0.116
[2,  2500] loss: 0.096
[2,  5000] loss: 0.113
[2,  7500] loss: 0.103
[2, 10000] loss: 0.098
…
[2, 15000] loss: 0.095
[3,  2500] loss: 0.099
[3,  5000] loss: 0.097
[3,  7500] loss: 0.096
[3, 10000] loss: 0.100
[3, 12500] loss: 0.088
[3, 15000] loss: 0.097
[4,  2500] loss: 0.083
[4,  5000] loss: 0.096
[4,  7500] loss: 0.110
[4, 10000] loss: 0.082
[4, 12500] loss: 0.083
[4, 15000] loss: 0.095
[5,  2500] loss: 0.085
[5,  5000] loss: 0.105
[5,  7500] loss: 0.106
[5, 10000] loss: 0.106
[5, 12500] loss: 0.090
[5, 15000] loss: 0.109
Finished Training
Accuracy of the network on the 2500 test images: 97.66 %%

----------------------------------------------------------------------

ConvNet(
  (conv1): Conv2d(1, 8, kernel_size=(5, 5), stride=(1, 1))
  (pool1): MaxPool2d(kernel_size=2, stride=2, padding=0, dilation=1, ceil_mode=False)
  (conv2): Conv2d(8, 29, kernel_size=(5, 5), stride=(1, 1))
  (pool2): MaxPool2d(kernel_size=2, stride=2, padding=0, dilation=1, ceil_mode=False)
  (fc1): Linear(in_features=464, out_features=120, bias=True)
  (fc2): Linear(in_features=120, out_features=84, bias=True)
  (fc3): Linear(in_features=84, out_features=10, bias=True)
)
SGD (
Parameter Group 0
    dampening: 0
    lr: 0.004
    momentum: 0.9
    nesterov: False
    weight_decay: 0
)
Start Training
[1,  2500] loss: 0.489
[1,  5000] loss: 0.151
[1,  7500] loss: 0.110
[1, 10000] loss: 0.098
[1, 12500] loss: 0.092
[1, 15000] loss: 0.085
[2,  2500] loss: 0.067
[2,  5000] loss: 0.073
[2,  7500] loss: 0.057
[2, 10000] loss: 0.065
…
[2, 15000] loss: 0.061
[3,  2500] loss: 0.049
[3,  5000] loss: 0.048
[3,  7500] loss: 0.056
[3, 10000] loss: 0.048
[3, 12500] loss: 0.056
[3, 15000] loss: 0.042
[4,  2500] loss: 0.033
[4,  5000] loss: 0.037
[4,  7500] loss: 0.035
[4, 10000] loss: 0.038
[4, 12500] loss: 0.043
[4, 15000] loss: 0.039
[5,  2500] loss: 0.036
[5,  5000] loss: 0.035
[5,  7500] loss: 0.031
[5, 10000] loss: 0.044
[5, 12500] loss: 0.040
[5, 15000] loss: 0.042
Finished Training
Accuracy of the network on the 2500 test images: 98.8 %%

----------------------------------------------------------------------

ConvNet(
  (conv1): Conv2d(1, 8, kernel_size=(5, 5), stride=(1, 1))
  (pool1): MaxPool2d(kernel_size=2, stride=2, padding=0, dilation=1, ceil_mode=False)
  (conv2): Conv2d(8, 5, kernel_size=(2, 2), stride=(1, 1))
  (pool2): MaxPool2d(kernel_size=2, stride=2, padding=0, dilation=1, ceil_mode=False)
  (fc1): Linear(in_features=125, out_features=120, bias=True)
  (fc2): Linear(in_features=120, out_features=84, bias=True)
  (fc3): Linear(in_features=84, out_features=10, bias=True)
)
SGD (
Parameter Group 0
    dampening: 0
    lr: 0.004
    momentum: 0.9
    nesterov: False
    weight_decay: 0
)
Start Training
[1,  2500] loss: 0.603
[1,  5000] loss: 0.173
[1,  7500] loss: 0.124
[1, 10000] loss: 0.130
[1, 12500] loss: 0.118
[1, 15000] loss: 0.101
[2,  2500] loss: 0.084
[2,  5000] loss: 0.096
[2,  7500] loss: 0.086
[2, 10000] loss: 0.083
…
[2, 15000] loss: 0.088
[3,  2500] loss: 0.061
[3,  5000] loss: 0.075
[3,  7500] loss: 0.072
[3, 10000] loss: 0.082
[3, 12500] loss: 0.078
[3, 15000] loss: 0.076
[4,  2500] loss: 0.078
[4,  5000] loss: 0.059
[4,  7500] loss: 0.071
[4, 10000] loss: 0.071
[4, 12500] loss: 0.065
[4, 15000] loss: 0.061
[5,  2500] loss: 0.051
[5,  5000] loss: 0.077
[5,  7500] loss: 0.067
[5, 10000] loss: 0.075
[5, 12500] loss: 0.057
[5, 15000] loss: 0.067
Finished Training
Accuracy of the network on the 2500 test images: 98.12 %%

----------------------------------------------------------------------

ConvNet(
  (conv1): Conv2d(1, 4, kernel_size=(3, 3), stride=(1, 1))
  (pool1): MaxPool2d(kernel_size=2, stride=2, padding=0, dilation=1, ceil_mode=False)
  (conv2): Conv2d(4, 29, kernel_size=(4, 4), stride=(1, 1))
  (pool2): MaxPool2d(kernel_size=2, stride=2, padding=0, dilation=1, ceil_mode=False)
  (fc1): Linear(in_features=725, out_features=120, bias=True)
  (fc2): Linear(in_features=120, out_features=84, bias=True)
  (fc3): Linear(in_features=84, out_features=10, bias=True)
)
SGD (
Parameter Group 0
    dampening: 0
    lr: 0.004
    momentum: 0.9
    nesterov: False
    weight_decay: 0
)
Start Training
[1,  2500] loss: 0.556
[1,  5000] loss: 0.135
[1,  7500] loss: 0.117
[1, 10000] loss: 0.096
[1, 12500] loss: 0.079
[1, 15000] loss: 0.090
[2,  2500] loss: 0.064
[2,  5000] loss: 0.078
[2,  7500] loss: 0.064
[2, 10000] loss: 0.064
…
[2, 15000] loss: 0.051
[3,  2500] loss: 0.043
[3,  5000] loss: 0.053
[3,  7500] loss: 0.048
[3, 10000] loss: 0.041
[3, 12500] loss: 0.050
[3, 15000] loss: 0.049
[4,  2500] loss: 0.037
[4,  5000] loss: 0.040
[4,  7500] loss: 0.043
[4, 10000] loss: 0.037
[4, 12500] loss: 0.042
[4, 15000] loss: 0.046
[5,  2500] loss: 0.036
[5,  5000] loss: 0.030
[5,  7500] loss: 0.036
[5, 10000] loss: 0.035
[5, 12500] loss: 0.038
[5, 15000] loss: 0.037
Finished Training
Accuracy of the network on the 2500 test images: 98.63 %%

----------------------------------------------------------------------

ConvNet(
  (conv1): Conv2d(1, 8, kernel_size=(4, 4), stride=(1, 1))
  (pool1): MaxPool2d(kernel_size=2, stride=2, padding=0, dilation=1, ceil_mode=False)
  (conv2): Conv2d(8, 32, kernel_size=(4, 4), stride=(1, 1))
  (pool2): MaxPool2d(kernel_size=2, stride=2, padding=0, dilation=1, ceil_mode=False)
  (fc1): Linear(in_features=512, out_features=120, bias=True)
  (fc2): Linear(in_features=120, out_features=84, bias=True)
  (fc3): Linear(in_features=84, out_features=10, bias=True)
)
SGD (
Parameter Group 0
    dampening: 0
    lr: 0.004
    momentum: 0.9
    nesterov: False
    weight_decay: 0
)
Start Training
[1,  2500] loss: 0.475
[1,  5000] loss: 0.141
[1,  7500] loss: 0.109
[1, 10000] loss: 0.088
[1, 12500] loss: 0.082
[1, 15000] loss: 0.085
[2,  2500] loss: 0.067
[2,  5000] loss: 0.060
[2,  7500] loss: 0.061
[2, 10000] loss: 0.057
…
[2, 15000] loss: 0.054
[3,  2500] loss: 0.038
[3,  5000] loss: 0.043
[3,  7500] loss: 0.047
[3, 10000] loss: 0.050
[3, 12500] loss: 0.048
[3, 15000] loss: 0.044
[4,  2500] loss: 0.041
[4,  5000] loss: 0.037
[4,  7500] loss: 0.040
[4, 10000] loss: 0.033
[4, 12500] loss: 0.037
[4, 15000] loss: 0.044
[5,  2500] loss: 0.023
[5,  5000] loss: 0.028
[5,  7500] loss: 0.029
[5, 10000] loss: 0.031
[5, 12500] loss: 0.029
[5, 15000] loss: 0.033
Finished Training
Accuracy of the network on the 2500 test images: 98.98 %%

----------------------------------------------------------------------

ConvNet(
  (conv1): Conv2d(1, 4, kernel_size=(4, 4), stride=(1, 1))
  (pool1): MaxPool2d(kernel_size=2, stride=2, padding=0, dilation=1, ceil_mode=False)
  (conv2): Conv2d(4, 29, kernel_size=(4, 4), stride=(1, 1))
  (pool2): MaxPool2d(kernel_size=2, stride=2, padding=0, dilation=1, ceil_mode=False)
  (fc1): Linear(in_features=464, out_features=120, bias=True)
  (fc2): Linear(in_features=120, out_features=84, bias=True)
  (fc3): Linear(in_features=84, out_features=10, bias=True)
)
SGD (
Parameter Group 0
    dampening: 0
    lr: 0.004
    momentum: 0.9
    nesterov: False
    weight_decay: 0
)
Start Training
[1,  2500] loss: 0.502
[1,  5000] loss: 0.148
[1,  7500] loss: 0.127
[1, 10000] loss: 0.094
[1, 12500] loss: 0.095
[1, 15000] loss: 0.089
[2,  2500] loss: 0.069
[2,  5000] loss: 0.066
[2,  7500] loss: 0.072
[2, 10000] loss: 0.067
…
[2, 15000] loss: 0.065
[3,  2500] loss: 0.050
[3,  5000] loss: 0.061
[3,  7500] loss: 0.052
[3, 10000] loss: 0.053
[3, 12500] loss: 0.059
[3, 15000] loss: 0.056
[4,  2500] loss: 0.042
[4,  5000] loss: 0.046
[4,  7500] loss: 0.046
[4, 10000] loss: 0.045
[4, 12500] loss: 0.053
[4, 15000] loss: 0.046
[5,  2500] loss: 0.029
[5,  5000] loss: 0.040
[5,  7500] loss: 0.039
[5, 10000] loss: 0.039
[5, 12500] loss: 0.046
[5, 15000] loss: 0.041
Finished Training
Accuracy of the network on the 2500 test images: 98.45 %%

----------------------------------------------------------------------

ConvNet(
  (conv1): Conv2d(1, 7, kernel_size=(4, 4), stride=(1, 1))
  (pool1): MaxPool2d(kernel_size=2, stride=2, padding=0, dilation=1, ceil_mode=False)
  (conv2): Conv2d(7, 32, kernel_size=(4, 4), stride=(1, 1))
  (pool2): MaxPool2d(kernel_size=2, stride=2, padding=0, dilation=1, ceil_mode=False)
  (fc1): Linear(in_features=512, out_features=120, bias=True)
  (fc2): Linear(in_features=120, out_features=84, bias=True)
  (fc3): Linear(in_features=84, out_features=10, bias=True)
)
SGD (
Parameter Group 0
    dampening: 0
    lr: 0.008
    momentum: 0.9
    nesterov: False
    weight_decay: 0
)
Start Training
[1,  2500] loss: 0.473
[1,  5000] loss: 0.229
[1,  7500] loss: 0.195
[1, 10000] loss: 0.191
[1, 12500] loss: 0.195
[1, 15000] loss: 0.203
[2,  2500] loss: 0.168
[2,  5000] loss: 0.145
[2,  7500] loss: 0.241
[2, 10000] loss: 0.168
…
[2, 15000] loss: 0.262
[3,  2500] loss: 0.238
[3,  5000] loss: 0.256
[3,  7500] loss: 0.188
[3, 10000] loss: 0.247
[3, 12500] loss: 0.213
[3, 15000] loss: 0.503
[4,  2500] loss: 0.576
[4,  5000] loss: 0.435
[4,  7500] loss: 1.411
[4, 10000] loss: 1.224
[4, 12500] loss: 2.306
[4, 15000] loss: 2.306
[5,  2500] loss: 2.307
[5,  5000] loss: 2.305
[5,  7500] loss: 2.306
[5, 10000] loss: 2.305
[5, 12500] loss: 2.305
[5, 15000] loss: 2.306
Finished Training
Accuracy of the network on the 2500 test images: 10.28 %%

----------------------------------------------------------------------

ConvNet(
  (conv1): Conv2d(1, 8, kernel_size=(4, 4), stride=(1, 1))
  (pool1): MaxPool2d(kernel_size=2, stride=2, padding=0, dilation=1, ceil_mode=False)
  (conv2): Conv2d(8, 12, kernel_size=(4, 4), stride=(1, 1))
  (pool2): MaxPool2d(kernel_size=2, stride=2, padding=0, dilation=1, ceil_mode=False)
  (fc1): Linear(in_features=192, out_features=120, bias=True)
  (fc2): Linear(in_features=120, out_features=84, bias=True)
  (fc3): Linear(in_features=84, out_features=10, bias=True)
)
SGD (
Parameter Group 0
    dampening: 0
    lr: 0.008
    momentum: 0.9
    nesterov: False
    weight_decay: 0
)
Start Training
[1,  2500] loss: 0.515
[1,  5000] loss: 0.235
[1,  7500] loss: 0.196
[1, 10000] loss: 0.175
[1, 12500] loss: 0.209
[1, 15000] loss: 0.198
[2,  2500] loss: 0.188
[2,  5000] loss: 0.218
[2,  7500] loss: 0.226
[2, 10000] loss: 0.176
…
[2, 15000] loss: 0.240
[3,  2500] loss: 0.401
[3,  5000] loss: 0.495
[3,  7500] loss: 2.022
[3, 10000] loss: 2.306
[3, 12500] loss: 2.305
[3, 15000] loss: 2.305
[4,  2500] loss: 2.306
[4,  5000] loss: 2.305
[4,  7500] loss: 2.305
[4, 10000] loss: 2.306
[4, 12500] loss: 2.307
[4, 15000] loss: 2.306
[5,  2500] loss: 2.306
[5,  5000] loss: 2.307
[5,  7500] loss: 2.307
[5, 10000] loss: 2.306
[5, 12500] loss: 2.306
[5, 15000] loss: 2.305
Finished Training
Accuracy of the network on the 2500 test images: 10.32 %%

----------------------------------------------------------------------

ConvNet(
  (conv1): Conv2d(1, 7, kernel_size=(5, 5), stride=(1, 1))
  (pool1): MaxPool2d(kernel_size=2, stride=2, padding=0, dilation=1, ceil_mode=False)
  (conv2): Conv2d(7, 27, kernel_size=(4, 4), stride=(1, 1))
  (pool2): MaxPool2d(kernel_size=2, stride=2, padding=0, dilation=1, ceil_mode=False)
  (fc1): Linear(in_features=432, out_features=120, bias=True)
  (fc2): Linear(in_features=120, out_features=84, bias=True)
  (fc3): Linear(in_features=84, out_features=10, bias=True)
)
SGD (
Parameter Group 0
    dampening: 0
    lr: 0.002
    momentum: 0.9
    nesterov: False
    weight_decay: 0
)
Start Training
[1,  2500] loss: 0.624
[1,  5000] loss: 0.145
[1,  7500] loss: 0.105
[1, 10000] loss: 0.091
[1, 12500] loss: 0.079
[1, 15000] loss: 0.083
[2,  2500] loss: 0.059
[2,  5000] loss: 0.057
[2,  7500] loss: 0.052
[2, 10000] loss: 0.055
…
[2, 15000] loss: 0.051
[3,  2500] loss: 0.037
[3,  5000] loss: 0.038
[3,  7500] loss: 0.033
[3, 10000] loss: 0.041
[3, 12500] loss: 0.035
[3, 15000] loss: 0.042
[4,  2500] loss: 0.027
[4,  5000] loss: 0.025
[4,  7500] loss: 0.029
[4, 10000] loss: 0.030
[4, 12500] loss: 0.031
[4, 15000] loss: 0.030
[5,  2500] loss: 0.018
[5,  5000] loss: 0.025
[5,  7500] loss: 0.022
[5, 10000] loss: 0.026
[5, 12500] loss: 0.025
[5, 15000] loss: 0.022
Finished Training
Accuracy of the network on the 2500 test images: 98.85 %%

----------------------------------------------------------------------

ConvNet(
  (conv1): Conv2d(1, 6, kernel_size=(4, 4), stride=(1, 1))
  (pool1): MaxPool2d(kernel_size=2, stride=2, padding=0, dilation=1, ceil_mode=False)
  (conv2): Conv2d(6, 32, kernel_size=(5, 5), stride=(1, 1))
  (pool2): MaxPool2d(kernel_size=2, stride=2, padding=0, dilation=1, ceil_mode=False)
  (fc1): Linear(in_features=512, out_features=120, bias=True)
  (fc2): Linear(in_features=120, out_features=84, bias=True)
  (fc3): Linear(in_features=84, out_features=10, bias=True)
)
Adam (
Parameter Group 0
    amsgrad: False
    betas: (0.9, 0.999)
    eps: 1e-08
    lr: 0.008
    weight_decay: 0
)
Start Training
[1,  2500] loss: 0.532
[1,  5000] loss: 0.402
[1,  7500] loss: 0.348
[1, 10000] loss: 0.375
[1, 12500] loss: 0.337
[1, 15000] loss: 0.322
[2,  2500] loss: 0.309
[2,  5000] loss: 0.304
[2,  7500] loss: 0.332
[2, 10000] loss: 0.337
…
[2, 15000] loss: 0.375
[3,  2500] loss: 0.342
[3,  5000] loss: 0.409
[3,  7500] loss: 0.356
[3, 10000] loss: 0.324
[3, 12500] loss: 0.437
[3, 15000] loss: 0.358
[4,  2500] loss: 0.404
[4,  5000] loss: 0.496
[4,  7500] loss: 0.402
[4, 10000] loss: 0.548
[4, 12500] loss: 0.425
[4, 15000] loss: 0.457
[5,  2500] loss: 0.470
[5,  5000] loss: 0.470
[5,  7500] loss: 0.426
[5, 10000] loss: 0.464
[5, 12500] loss: 0.540
[5, 15000] loss: 0.413
Finished Training
Accuracy of the network on the 2500 test images: 86.74 %%

----------------------------------------------------------------------

ConvNet(
  (conv1): Conv2d(1, 3, kernel_size=(4, 4), stride=(1, 1))
  (pool1): MaxPool2d(kernel_size=2, stride=2, padding=0, dilation=1, ceil_mode=False)
  (conv2): Conv2d(3, 28, kernel_size=(4, 4), stride=(1, 1))
  (pool2): MaxPool2d(kernel_size=2, stride=2, padding=0, dilation=1, ceil_mode=False)
  (fc1): Linear(in_features=448, out_features=120, bias=True)
  (fc2): Linear(in_features=120, out_features=84, bias=True)
  (fc3): Linear(in_features=84, out_features=10, bias=True)
)
Adam (
Parameter Group 0
    amsgrad: False
    betas: (0.9, 0.999)
    eps: 1e-08
    lr: 0.004
    weight_decay: 0
)
Start Training
[1,  2500] loss: 0.381
[1,  5000] loss: 0.188
[1,  7500] loss: 0.177
[1, 10000] loss: 0.170
[1, 12500] loss: 0.177
[1, 15000] loss: 0.151
[2,  2500] loss: 0.152
[2,  5000] loss: 0.133
[2,  7500] loss: 0.176
[2, 10000] loss: 0.156
…
[2, 15000] loss: 0.158
[3,  2500] loss: 0.137
[3,  5000] loss: 0.149
[3,  7500] loss: 0.169
[3, 10000] loss: 0.169
[3, 12500] loss: 0.125
[3, 15000] loss: 0.161
[4,  2500] loss: 0.151
[4,  5000] loss: 0.143
[4,  7500] loss: 0.144
[4, 10000] loss: 0.136
[4, 12500] loss: 0.211
[4, 15000] loss: 0.153
[5,  2500] loss: 0.134
[5,  5000] loss: 0.147
[5,  7500] loss: 0.151
[5, 10000] loss: 0.136
[5, 12500] loss: 0.155
[5, 15000] loss: 0.137
Finished Training
Accuracy of the network on the 2500 test images: 97.19 %%

----------------------------------------------------------------------

ConvNet(
  (conv1): Conv2d(1, 6, kernel_size=(4, 4), stride=(1, 1))
  (pool1): MaxPool2d(kernel_size=2, stride=2, padding=0, dilation=1, ceil_mode=False)
  (conv2): Conv2d(6, 32, kernel_size=(4, 4), stride=(1, 1))
  (pool2): MaxPool2d(kernel_size=2, stride=2, padding=0, dilation=1, ceil_mode=False)
  (fc1): Linear(in_features=512, out_features=120, bias=True)
  (fc2): Linear(in_features=120, out_features=84, bias=True)
  (fc3): Linear(in_features=84, out_features=10, bias=True)
)
SGD (
Parameter Group 0
    dampening: 0
    lr: 0.006
    momentum: 0.9
    nesterov: False
    weight_decay: 0
)
Start Training
[1,  2500] loss: 0.488
[1,  5000] loss: 0.170
[1,  7500] loss: 0.139
[1, 10000] loss: 0.131
[1, 12500] loss: 0.103
[1, 15000] loss: 0.106
[2,  2500] loss: 0.081
[2,  5000] loss: 0.088
[2,  7500] loss: 0.083
[2, 10000] loss: 0.082
…
[2, 15000] loss: 0.084
[3,  2500] loss: 0.064
[3,  5000] loss: 0.070
[3,  7500] loss: 0.058
[3, 10000] loss: 0.071
[3, 12500] loss: 0.078
[3, 15000] loss: 0.076
[4,  2500] loss: 0.061
[4,  5000] loss: 0.059
[4,  7500] loss: 0.063
[4, 10000] loss: 0.062
[4, 12500] loss: 0.063
[4, 15000] loss: 0.064
[5,  2500] loss: 0.048
[5,  5000] loss: 0.068
[5,  7500] loss: 0.058
[5, 10000] loss: 0.065
[5, 12500] loss: 0.070
[5, 15000] loss: 0.055
Finished Training
Accuracy of the network on the 2500 test images: 97.64 %%

----------------------------------------------------------------------

ConvNet(
  (conv1): Conv2d(1, 5, kernel_size=(5, 5), stride=(1, 1))
  (pool1): MaxPool2d(kernel_size=2, stride=2, padding=0, dilation=1, ceil_mode=False)
  (conv2): Conv2d(5, 16, kernel_size=(5, 5), stride=(1, 1))
  (pool2): MaxPool2d(kernel_size=2, stride=2, padding=0, dilation=1, ceil_mode=False)
  (fc1): Linear(in_features=256, out_features=120, bias=True)
  (fc2): Linear(in_features=120, out_features=84, bias=True)
  (fc3): Linear(in_features=84, out_features=10, bias=True)
)
SGD (
Parameter Group 0
    dampening: 0
    lr: 0.004
    momentum: 0.9
    nesterov: False
    weight_decay: 0
)
Start Training
[1,  2500] loss: 0.590
[1,  5000] loss: 0.182
[1,  7500] loss: 0.128
[1, 10000] loss: 0.120
[1, 12500] loss: 0.112
[1, 15000] loss: 0.108
[2,  2500] loss: 0.087
[2,  5000] loss: 0.086
[2,  7500] loss: 0.080
[2, 10000] loss: 0.074
…
[2, 15000] loss: 0.080
[3,  2500] loss: 0.065
[3,  5000] loss: 0.072
[3,  7500] loss: 0.067
[3, 10000] loss: 0.056
[3, 12500] loss: 0.067
[3, 15000] loss: 0.060
[4,  2500] loss: 0.053
[4,  5000] loss: 0.063
[4,  7500] loss: 0.059
[4, 10000] loss: 0.059
[4, 12500] loss: 0.064
[4, 15000] loss: 0.057
[5,  2500] loss: 0.052
[5,  5000] loss: 0.054
[5,  7500] loss: 0.054
[5, 10000] loss: 0.047
[5, 12500] loss: 0.055
[5, 15000] loss: 0.059
Finished Training
Accuracy of the network on the 2500 test images: 98.52 %%

----------------------------------------------------------------------

ConvNet(
  (conv1): Conv2d(1, 8, kernel_size=(3, 3), stride=(1, 1))
  (pool1): MaxPool2d(kernel_size=2, stride=2, padding=0, dilation=1, ceil_mode=False)
  (conv2): Conv2d(8, 28, kernel_size=(4, 4), stride=(1, 1))
  (pool2): MaxPool2d(kernel_size=2, stride=2, padding=0, dilation=1, ceil_mode=False)
  (fc1): Linear(in_features=700, out_features=120, bias=True)
  (fc2): Linear(in_features=120, out_features=84, bias=True)
  (fc3): Linear(in_features=84, out_features=10, bias=True)
)
SGD (
Parameter Group 0
    dampening: 0
    lr: 0.004
    momentum: 0.9
    nesterov: False
    weight_decay: 0
)
Start Training
[1,  2500] loss: 0.498
[1,  5000] loss: 0.138
[1,  7500] loss: 0.104
[1, 10000] loss: 0.096
[1, 12500] loss: 0.085
[1, 15000] loss: 0.073
[2,  2500] loss: 0.060
[2,  5000] loss: 0.057
[2,  7500] loss: 0.061
[2, 10000] loss: 0.061
…
[2, 15000] loss: 0.056
[3,  2500] loss: 0.044
[3,  5000] loss: 0.044
[3,  7500] loss: 0.046
[3, 10000] loss: 0.046
[3, 12500] loss: 0.041
[3, 15000] loss: 0.044
[4,  2500] loss: 0.037
[4,  5000] loss: 0.030
[4,  7500] loss: 0.039
[4, 10000] loss: 0.039
[4, 12500] loss: 0.033
[4, 15000] loss: 0.041
[5,  2500] loss: 0.027
[5,  5000] loss: 0.033
[5,  7500] loss: 0.035
[5, 10000] loss: 0.035
[5, 12500] loss: 0.027
[5, 15000] loss: 0.028
Finished Training
Accuracy of the network on the 2500 test images: 98.83 %%

----------------------------------------------------------------------

ConvNet(
  (conv1): Conv2d(1, 8, kernel_size=(4, 4), stride=(1, 1))
  (pool1): MaxPool2d(kernel_size=2, stride=2, padding=0, dilation=1, ceil_mode=False)
  (conv2): Conv2d(8, 15, kernel_size=(5, 5), stride=(1, 1))
  (pool2): MaxPool2d(kernel_size=2, stride=2, padding=0, dilation=1, ceil_mode=False)
  (fc1): Linear(in_features=240, out_features=120, bias=True)
  (fc2): Linear(in_features=120, out_features=84, bias=True)
  (fc3): Linear(in_features=84, out_features=10, bias=True)
)
SGD (
Parameter Group 0
    dampening: 0
    lr: 0.003
    momentum: 0.9
    nesterov: False
    weight_decay: 0
)
Start Training
[1,  2500] loss: 0.505
[1,  5000] loss: 0.145
[1,  7500] loss: 0.110
[1, 10000] loss: 0.095
[1, 12500] loss: 0.083
[1, 15000] loss: 0.077
[2,  2500] loss: 0.064
[2,  5000] loss: 0.057
[2,  7500] loss: 0.053
[2, 10000] loss: 0.063
…
[2, 15000] loss: 0.050
[3,  2500] loss: 0.048
[3,  5000] loss: 0.043
[3,  7500] loss: 0.046
[3, 10000] loss: 0.039
[3, 12500] loss: 0.043
[3, 15000] loss: 0.043
[4,  2500] loss: 0.036
[4,  5000] loss: 0.040
[4,  7500] loss: 0.035
[4, 10000] loss: 0.035
[4, 12500] loss: 0.040
[4, 15000] loss: 0.031
[5,  2500] loss: 0.029
[5,  5000] loss: 0.027
[5,  7500] loss: 0.034
[5, 10000] loss: 0.029
[5, 12500] loss: 0.032
[5, 15000] loss: 0.030
Finished Training
Accuracy of the network on the 2500 test images: 98.77 %%

----------------------------------------------------------------------

ConvNet(
  (conv1): Conv2d(1, 3, kernel_size=(4, 4), stride=(1, 1))
  (pool1): MaxPool2d(kernel_size=2, stride=2, padding=0, dilation=1, ceil_mode=False)
  (conv2): Conv2d(3, 30, kernel_size=(4, 4), stride=(1, 1))
  (pool2): MaxPool2d(kernel_size=2, stride=2, padding=0, dilation=1, ceil_mode=False)
  (fc1): Linear(in_features=480, out_features=120, bias=True)
  (fc2): Linear(in_features=120, out_features=84, bias=True)
  (fc3): Linear(in_features=84, out_features=10, bias=True)
)
SGD (
Parameter Group 0
    dampening: 0
    lr: 0.008
    momentum: 0.9
    nesterov: False
    weight_decay: 0
)
Start Training
[1,  2500] loss: 0.519
[1,  5000] loss: 0.264
[1,  7500] loss: 0.228
[1, 10000] loss: 0.196
[1, 12500] loss: 0.192
[1, 15000] loss: 0.207
[2,  2500] loss: 0.196
[2,  5000] loss: 0.195
[2,  7500] loss: 0.222
[2, 10000] loss: 0.187
…
[2, 15000] loss: 0.181
[3,  2500] loss: 0.190
[3,  5000] loss: 0.217
[3,  7500] loss: 0.247
[3, 10000] loss: 0.243
[3, 12500] loss: 0.363
[3, 15000] loss: 0.518
[4,  2500] loss: 0.404
[4,  5000] loss: 0.772
[4,  7500] loss: 2.285
[4, 10000] loss: 2.305
[4, 12500] loss: 2.306
[4, 15000] loss: 2.307
[5,  2500] loss: 2.307
[5,  5000] loss: 2.306
[5,  7500] loss: 2.305
[5, 10000] loss: 2.305
[5, 12500] loss: 2.304
[5, 15000] loss: 2.305
Finished Training
Accuracy of the network on the 2500 test images: 10.28 %%

----------------------------------------------------------------------

ConvNet(
  (conv1): Conv2d(1, 8, kernel_size=(5, 5), stride=(1, 1))
  (pool1): MaxPool2d(kernel_size=2, stride=2, padding=0, dilation=1, ceil_mode=False)
  (conv2): Conv2d(8, 28, kernel_size=(4, 4), stride=(1, 1))
  (pool2): MaxPool2d(kernel_size=2, stride=2, padding=0, dilation=1, ceil_mode=False)
  (fc1): Linear(in_features=448, out_features=120, bias=True)
  (fc2): Linear(in_features=120, out_features=84, bias=True)
  (fc3): Linear(in_features=84, out_features=10, bias=True)
)
SGD (
Parameter Group 0
    dampening: 0
    lr: 0.008
    momentum: 0.9
    nesterov: False
    weight_decay: 0
)
Start Training
[1,  2500] loss: 0.503
[1,  5000] loss: 0.252
[1,  7500] loss: 0.234
[1, 10000] loss: 0.278
[1, 12500] loss: 0.227
[1, 15000] loss: 0.234
[2,  2500] loss: 0.213
[2,  5000] loss: 0.318
[2,  7500] loss: 0.648
[2, 10000] loss: 0.420
…
[2, 15000] loss: 1.637
[3,  2500] loss: 2.306
[3,  5000] loss: 2.305
[3,  7500] loss: 2.305
[3, 10000] loss: 2.307
[3, 12500] loss: 2.305
[3, 15000] loss: 2.107
[4,  2500] loss: 2.074
[4,  5000] loss: 2.306
[4,  7500] loss: 2.305
[4, 10000] loss: 2.306
[4, 12500] loss: 2.306
[4, 15000] loss: 2.306
[5,  2500] loss: 2.306
[5,  5000] loss: 2.305
[5,  7500] loss: 2.305
[5, 10000] loss: 2.305
[5, 12500] loss: 2.306
[5, 15000] loss: 2.306
Finished Training
Accuracy of the network on the 2500 test images: 10.1 %%

----------------------------------------------------------------------

ConvNet(
  (conv1): Conv2d(1, 6, kernel_size=(4, 4), stride=(1, 1))
  (pool1): MaxPool2d(kernel_size=2, stride=2, padding=0, dilation=1, ceil_mode=False)
  (conv2): Conv2d(6, 18, kernel_size=(4, 4), stride=(1, 1))
  (pool2): MaxPool2d(kernel_size=2, stride=2, padding=0, dilation=1, ceil_mode=False)
  (fc1): Linear(in_features=288, out_features=120, bias=True)
  (fc2): Linear(in_features=120, out_features=84, bias=True)
  (fc3): Linear(in_features=84, out_features=10, bias=True)
)
SGD (
Parameter Group 0
    dampening: 0
    lr: 0.007
    momentum: 0.9
    nesterov: False
    weight_decay: 0
)
Start Training
[1,  2500] loss: 0.521
[1,  5000] loss: 0.179
[1,  7500] loss: 0.167
[1, 10000] loss: 0.150
[1, 12500] loss: 0.140
[1, 15000] loss: 0.131
[2,  2500] loss: 0.125
[2,  5000] loss: 0.154
[2,  7500] loss: 0.156
[2, 10000] loss: 0.126
…
[2, 15000] loss: 0.105
[3,  2500] loss: 0.116
[3,  5000] loss: 0.107
[3,  7500] loss: 0.138
[3, 10000] loss: 0.126
[3, 12500] loss: 0.122
[3, 15000] loss: 0.130
[4,  2500] loss: 0.120
[4,  5000] loss: 0.129
[4,  7500] loss: 0.114
[4, 10000] loss: 0.118
[4, 12500] loss: 0.127
[4, 15000] loss: 0.149
[5,  2500] loss: 0.106
[5,  5000] loss: 0.132
[5,  7500] loss: 0.112
[5, 10000] loss: 0.129
[5, 12500] loss: 0.143
[5, 15000] loss: 0.136
Finished Training
Accuracy of the network on the 2500 test images: 97.4 %%

----------------------------------------------------------------------

ConvNet(
  (conv1): Conv2d(1, 2, kernel_size=(3, 3), stride=(1, 1))
  (pool1): MaxPool2d(kernel_size=2, stride=2, padding=0, dilation=1, ceil_mode=False)
  (conv2): Conv2d(2, 32, kernel_size=(5, 5), stride=(1, 1))
  (pool2): MaxPool2d(kernel_size=2, stride=2, padding=0, dilation=1, ceil_mode=False)
  (fc1): Linear(in_features=512, out_features=120, bias=True)
  (fc2): Linear(in_features=120, out_features=84, bias=True)
  (fc3): Linear(in_features=84, out_features=10, bias=True)
)
SGD (
Parameter Group 0
    dampening: 0
    lr: 0.004
    momentum: 0.9
    nesterov: False
    weight_decay: 0
)
Start Training
[1,  2500] loss: 0.501
[1,  5000] loss: 0.196
[1,  7500] loss: 0.138
[1, 10000] loss: 0.127
[1, 12500] loss: 0.108
[1, 15000] loss: 0.103
[2,  2500] loss: 0.092
[2,  5000] loss: 0.084
[2,  7500] loss: 0.076
[2, 10000] loss: 0.087
…
[2, 15000] loss: 0.078
[3,  2500] loss: 0.067
[3,  5000] loss: 0.065
[3,  7500] loss: 0.057
[3, 10000] loss: 0.073
[3, 12500] loss: 0.065
[3, 15000] loss: 0.058
[4,  2500] loss: 0.044
[4,  5000] loss: 0.057
[4,  7500] loss: 0.049
[4, 10000] loss: 0.043
[4, 12500] loss: 0.063
[4, 15000] loss: 0.057
[5,  2500] loss: 0.057
[5,  5000] loss: 0.043
[5,  7500] loss: 0.051
[5, 10000] loss: 0.043
[5, 12500] loss: 0.054
[5, 15000] loss: 0.047
Finished Training
Accuracy of the network on the 2500 test images: 98.12 %%

----------------------------------------------------------------------

ConvNet(
  (conv1): Conv2d(1, 8, kernel_size=(3, 3), stride=(1, 1))
  (pool1): MaxPool2d(kernel_size=2, stride=2, padding=0, dilation=1, ceil_mode=False)
  (conv2): Conv2d(8, 24, kernel_size=(5, 5), stride=(1, 1))
  (pool2): MaxPool2d(kernel_size=2, stride=2, padding=0, dilation=1, ceil_mode=False)
  (fc1): Linear(in_features=384, out_features=120, bias=True)
  (fc2): Linear(in_features=120, out_features=84, bias=True)
  (fc3): Linear(in_features=84, out_features=10, bias=True)
)
Adam (
Parameter Group 0
    amsgrad: False
    betas: (0.9, 0.999)
    eps: 1e-08
    lr: 0.008
    weight_decay: 0
)
Start Training
[1,  2500] loss: 2.306
[1,  5000] loss: 2.305
[1,  7500] loss: 2.304
[1, 10000] loss: 2.303
[1, 12500] loss: 2.304
[1, 15000] loss: 2.304
[2,  2500] loss: 2.304
[2,  5000] loss: 2.305
[2,  7500] loss: 2.304
[2, 10000] loss: 2.305
…
